mnist_model.pth (torch, 439735 bytes, 6 tensors)

fc1.weight f4 [128, 784]
0.01690669 0.07539272 0.036033984 0.042773236 0.05924611 0.034422193 0.01578296 0.080112
0.06469274 0.07842168 0.014972243 0.03758039 0.035003025 0.04034108 0.019969685 0.07285766
0.07926997 0.04749557 0.051961754 0.05110706 0.07577238 0.018951658 0.024432113 0.023437241
0.046846125 0.01692105 0.040843748 0.03732293 0.08318395 0.05757646 0.07483085 0.05834439
0.05158297 0.019860437 0.029800596 0.037723865 0.03222931 0.030296212 0.046106335 0.06578389
0.03350625 0.0320429 0.012013113 -0.010369489 0.061082024 0.0390799 0.05660354 0.058031958
0.06958877 0.07088732 0.08133744 0.05736156 0.03263688 0.024868868 0.02755702 0.07227717
0.066226125 0.051515847 0.04472491 0.04829402 0.08090869 0.065156184 0.043816388 0.05773409
0.029507032 0.04085929 0.015278639 0.05834707 0.028919443 0.010776508 0.059829373 0.024303969
0.013368296 0.014119059 0.041942306 0.061169434 0.023999874 0.048269432 0.08276193 0.051462878
0.04545608 0.040609624 0.0429596 0.042176276 0.07819016 0.08531223 0.036926534 0.05033365
0.04804724 0.029131545 0.047453668 0.057549343 -0.00065659883 -0.0033030878 -0.029047322 0.017557906
0.026472544 0.005849149 0.018695222 -0.019460604 0.004020125 0.040911656 -0.031863622 0.03466651
0.09803568 0.06679259 0.04831918 0.075623564 0.08772979 0.017044049 0.022362879 0.023990562
0.01689956 0.06692536 0.016064081 0.036868963 0.04427449 0.06719953 0.057863317 0.05369101
-0.015290939 -0.08191777 -0.10004202 -0.10347493 -0.06677271 0.00025683866 -0.11034286 -0.10436773
-0.03700045 0.105473004 0.024430254 0.034039084 0.1159781 0.14983681 0.15225525 0.17747752
0.106171146 0.009324493 0.0032821395 0.030086694 0.044436537 0.03978908 0.06101865 0.018463202
0.07821299 0.04078335 0.059300683 0.06722808 0.12997708 0.11892744 -0.004051304 0.018638851
0.0023911255 0.033373524 0.10840486 0.15200026 -0.046192475 -0.00015434323 0.02318052 -0.08890872
-0.08908399 0.013509842 0.123353995 0.2215897 0.09699819 0.003159687 0.028353436 0.032928105
0.051048916 0.016775826 0.07696947 0.056400187 0.07405478 0.076862596 0.10153583 0.16216922
0.045672603 -0.0540263 -0.1225878 -0.058293667 0.07308233 0.060862493 0.12808259 -0.15437678
-0.035441794 -0.10140237 -0.09754423 -0.30012244 -0.27822122 -0.077318996 0.07885689 0.094943345
0.018223306 -0.03163597 0.0094712945 0.017006986 0.041848656 0.06949214 0.05373638 0.048170034
0.08332637 0.10560498 0.27528158 0.16647018 -0.011664755 -0.07131436 -0.08003368 0.051055744
0.017527996 0.14812471 0.06166658 -0.09980419 -0.11286904 0.008092305 -0.05527561 -0.2415966
-0.19223411 -0.17039716 0.02597414 0.06911075 0.00916043 -0.011830566 0.044629224 0.032285247
0.02053827 0.04146402 0.03628823 0.053099148 0.02406184 0.19210574 0.111674905 -0.08765625
-0.19593415 -0.24333994 -0.09696809 -0.087935194 -0.16053513 -0.062333465 -0.04656428 0.037717357
-0.15164867 -0.16115159 -0.12693645 -0.37182978 -0.14561658 -0.290667 -0.1772479 -0.10445617
-0.07852961 -0.003791738 0.015341922 0.029250072 0.02811236 0.018643089 0.031517584 0.055093586
00000000: e67f 8a3c 8067 9a3d 5f98 133d fd32 2f3d
00000010: 0dac 723d 49fe 0c3d 444b 813c c311 a43d
00000020: a17d 843d 8c9b a03d 244e 753c e5ed 193d
00000030: 555f 0f3d b03c 253d 7797 a33c 6636 953d
00000040: 4b58 a23d b78a 423d d9d5 543d a355 513d
00000050: 8d2e 9b3d 8240 9b3c db25 c83c 75ff bf3c
00000060: b9e1 3f3d 049e 8a3c c64b 273d eedf 183d
00000070: 595c aa3d 4bd5 6b3d eb40 993d 87fa 6e3d
00000080: aa48 533d 5bb2 a23c 6120 f43c 5784 1a3d
00000090: e202 043d c32f f83c ffd9 3c3d b4b9 863d
000000a0: d93d 093d 6a3f 033d a6d2 443c cae4 29bc
000000b0: 2531 7a3d 3f12 203d 1dd9 673d ebb2 6d3d
000000c0: 8f84 8e3d 5f2d 913d 3e94 a63d f5f3 6a3d
000000d0: 40ae 053d ccb9 cb3c 42bf e13c 0e06 943d
000000e0: 90a1 873d 4802 533d 7831 373d f3cf 453d
000000f0: 75b3 a53d 9b70 853d d078 333d 957a 6c3d
00000100: bbb8 f13c 125c 273d 4253 7a3c 56fd 6e3d
00000110: 78e8 ec3c f38f 303c a50f 753d 1e19 c73c
00000120: b306 5b3c a053 673c b2cb 2b3d cd8c 7a3d
00000130: 629b c43c 2bb6 453d 167f a93d bdca 523d
00000140: 2830 3a3d 4756 263d 68f6 2f3d 08c1 2c3d
00000150: 2a22 a03d 2eb8 ae3d 4740 173d a82a 4e3d
00000160: 2fcd 443d 47a5 ee3c c75e 423d dcb8 6b3d
00000170: 9a1f 2cba 9e78 58bb a6f4 edbc 99d5 8f3c
00000180: f3dc d83c 38aa bf3b b926 993c d86b 9fbc
00000190: 41bb 833b fb92 273d 6e83 02bd 78fe 0d3d
000001a0: eec6 c83d 8eca 883d 55ea 453d 87e0 9a3d
000001b0: adab b33d f69f 8b3c 5b32 b73c db87 c43c
000001c0: f270 8a3c 2a10 893d d298 833c e903 173d
000001d0: 2b59 353d e89f 893d 1602 6d3d 1beb 5b3d
000001e0: d986 7abc 81c4 a7bd d5e2 ccbd aaea d3bd
000001f0: 21c0 88bd 4da8 8639 70fb e1bd c0be d5bd
00000200: c98d 17bd 3b02 d83d f521 c83c 916c 0b3d
00000210: ed85 ed3d d26e 193e cde8 1b3e abbc 353e
00000220: 4270 d93d c2c5 183c 2a19 573b 5f78 f63c
00000230: 1603 363d e0f9 223d b1ee 793d 2440 973c
00000240: 222e a03d 710c 273d 46e5 723d e0ae 893d
00000250: b618 053e 3b90 f33d cdc0 84bb 81b0 983c
00000260: 6eb4 1c3b adb2 083d 5e03 de3d f5a5 1b3e
00000270: 5234 3dbd 32d7 21b9 13e5 bd3c c615 b6bd
00000280: ab71 b6bd 6258 5d3c 05a1 fc3d 69e8 623e
00000290: fda6 c63d c012 4f3b 7745 e83c 9fdf 063d
000002a0: ab18 513d 756d 893c 2ba2 9d3d e203 673d
000002b0: 08aa 973d 236a 9d3d 04f2 cf3d b00f 263e
000002c0: 3213 3b3d ae4a 5dbd 500f fbbd 57c5 6ebd
000002d0: 30ac 953d f34a 793d 1528 033e f214 1ebe
000002e0: 6a2b 11bd 0cac cfbd 45c5 c7bd a6a9 99be
000002f0: 0373 8ebe 6c59 9ebd b97f a13d a871 c23d
00000300: 0b49 953c b894 01bd 7d2d 1b3c 3c52 8b3c
00000310: 7f69 2b3d e551 8e3d ae1a 5c3d f14d 453d
00000320: 04a7 aa3d 6c47 d83d b5f1 8c3e 2977 2a3e
00000330: 871d 3fbc 430d 92bd b3e8 a3bd d41f 513d
00000340: df96 8f3c 01ae 173e 1996 7c3d 2466 ccbd
00000350: e227 e7bd 9695 043c ae68 62bd 1965 77be
00000360: 05d9 44be 987c 2ebe b8c7 d43c f089 8d3d
00000370: a115 163c fed4 41bc 22cd 363d 893d 043d
00000380: e03f a83c 2dd6 293d f8a2 143d 7e7e 593d
00000390: 561d c53c 5eb7 443e d0b5 e43d 1f85 b3bd
000003a0: f6a2 48be 1b2e 79be 3597 c6bd 5e17 b4bd
000003b0: 5263 24be 6051 7fbd 30ba 3ebd 847d 1a3d
000003c0: ca49 1bbe ec04 25be a1fb 01be 7960 bebe
000003d0: 831c 15be 4ed2 94be 7980 35be 1eed d5bd
000003e0: 22d4 a0bd cf7e 78bb af5c 7b3c d99d ef3c
000003f0: e44b e63c 64b9 983c 9518 013d d0a9 613d

fc1.bias f4 [128]
-0.07113717 -0.0099836085 -0.025382828 0.017582258 -0.023620103 0.027732087 -0.0048875534 0.0064176936
-0.032080427 0.06456088 0.02084599 -0.02247148 0.012373664 -0.016063584 0.0018998896 -0.025058873
0.004493486 -0.05871339 -0.00017645844 0.03544447 -0.0074055865 -0.06335104 -0.01795977 0.012960757
0.016719513 -0.01799029 -0.0134976 -0.027700791 0.028179964 -0.04063867 0.002913413 0.016004568
-0.032040436 -0.02786577 -0.036573708 0.028093684 -0.06753749 -0.028843073 -0.022404477 -0.03732496
-0.02181518 0.019066075 0.007059594 -0.029637827 -0.080722034 -0.0024957405 -0.015953852 -0.07159843
0.0012498145 -0.038563155 0.014976058 -0.027518349 -0.021445967 -0.021388827 0.004008729 -0.005155549
0.025488278 -0.041009746 0.0076820804 0.022072915 0.029590134 0.018663907 0.027311277 -0.010458723
0.022609668 0.020848136 0.013272952 0.0074282237 0.010809707 0.021608312 0.003973817 0.007125894
0.029585313 -0.03520217 -0.0040193344 0.020120986 -0.07239732 0.014659473 1.9892614e-05 0.0007302056
0.020728538 -0.012740524 -0.023971954 -0.0030897744 -0.0013993459 -0.035595994 0.015042363 -0.0436075
0.009289111 -0.013634616 -0.028268533 0.020691479 -0.0059930845 0.0062115365 0.009600619 -0.01434011
-0.006844446 -0.021592671 -0.007639132 0.0008840098 0.00960076 -0.001668622 -0.01894557 0.012425519
-0.01593947 0.00552053 -0.027008342 0.031108951 -0.0750542 -0.03365636 0.040006284 -0.020514244
-0.0066544157 0.020653749 -0.012807596 -0.04804062 0.05929941 0.034719545 -0.02030436 -0.03225698
-0.018793967 -0.022178061 -0.03823545 -0.027328925 -0.00766163 0.02491085 0.027218815 -0.053520918
00000000: 5db0 91bd 4a92 23bc a6ef cfbc ab08 903c
00000010: f27e c1bc 672e e33c c527 a0bb 844b d23b
00000020: c466 03bd 7f38 843d 36c5 aa3c 1c16 b8bc
00000030: e9ba 4a3c c797 83bc b705 f93a 4448 cdbc
00000040: 183e 933b 747d 70bd b407 39b9 382e 113d
00000050: 90aa f2bb 31be 81bd 5e20 93bc 5b59 543c
00000060: 5cf7 883c 5f60 93bc 0a25 5dbc c5ec e2bc
00000070: abd9 e63c bc74 26bd f6ee 3e3b 031c 833c
00000080: d53c 03bd c146 e4bc 50ce 15bd ba24 e63c
00000090: 1851 8abd 4f48 ecbc 9889 b7bc 0fe2 18bd
000000a0: c0b5 b2bc 7530 9c3c 2b54 e73b 07cb f2bc
000000b0: 9851 a5bd 948f 23bb a7b1 82bc 33a2 92bd
000000c0: d1d0 a33a 66f4 1dbd 245e 753c 296e e1bc
000000d0: 74af afbc 9f37 afbc a85b 833b e1ef a8bb
000000e0: cbcc d03c d6f9 27bd f6b9 fb3b 42d2 b43c
000000f0: 0267 f23c 0de5 983c e6bb df3c 105b 2bbc
00000100: e937 b93c b6c9 aa3c cc76 593c 7568 f33b
00000110: 331b 313c ea03 b13c cb36 823b 5580 e93b
00000120: e65c f23c 2730 10bd 9fb4 83bb c4d4 a43c
00000130: 0c45 94bd 492e 703c 10df a637 456b 3f3a
00000140: e5ce a93c a1bd 50bc d560 c4bc d07d 4abb
00000150: 426a b7ba 1bcd 11bd 3e74 763c c79d 32bd
00000160: 5b31 183c b963 5fbc 6993 e7bc 2d81 a93c
00000170: a361 c4bb 258a cb3b ea4b 1d3c c8f2 6abc
00000180: 6047 e0bb 1de3 b0bc af51 fabb e5bc 673a
00000190: 824c 1d3c aab5 daba bd33 9bbc 6794 4b3c
000001a0: 7e93 82bc 90e5 b43b 9940 ddbc 33d8 fe3c
000001b0: 04b6 99bd 40db 09bd a1dd 233d 7d0d a8bc
000001c0: 490d dabb 0d32 a93c f3d6 51bc 3ec6 44bd
000001d0: f0e3 723d 1536 0e3d 5455 a6bc e51f 04bd
000001e0: cef5 99bc c4ae b5bc c69c 1cbd e9e0 dfbc
000001f0: 690e fbbb d711 cc3c fef9 de3c c038 5bbd

fc2.weight f4 [64, 128]
-0.13206421 -0.0850091 0.015663981 -0.24836132 -0.078010805 0.100221545 -0.099086404 -0.18575777
0.09053007 0.22741736 -0.18198058 0.32348263 -0.2556771 -0.053232506 0.051798083 -0.23143668
0.083326034 0.26123753 -0.07229882 0.034961298 -0.0066971886 0.23840111 -0.047789223 -0.05756888
0.035419673 -0.001860451 0.07361929 -0.058658257 -0.13988788 0.04087633 0.20846093 0.27553847
-0.023310518 -0.070873186 -0.04785274 -0.08638001 0.008938827 -0.06408701 -0.15841581 -0.09808012
0.036582246 -0.16432449 -0.053175837 0.021233262 0.24304076 0.17454502 0.003358713 -0.21597041
0.17654021 0.10292749 0.1127613 0.012367777 -0.031685963 0.086620614 -0.07453869 -0.11688006
0.07307208 -0.059500273 0.014158053 0.09197114 -0.06079688 0.13765225 0.064001195 0.23178136
0.16832972 0.071615726 0.074901804 0.18812235 0.081477165 -0.13050908 -0.65314424 0.036575086
-0.07729322 0.15650943 -0.05898556 -0.06249095 0.37672296 0.0082896035 0.57143795 0.102390826
0.047405764 -0.15631989 0.043785904 -0.050932128 0.26070637 0.27718014 0.097303875 0.017338837
0.06697034 0.2976805 0.0018103195 0.060181003 0.1553463 -0.2344999 -0.13525799 0.040659588
-0.35427338 -0.23286508 0.0019291576 -0.020262733 0.011901949 0.010349041 0.12447124 0.040079046
-0.0684392 -0.111478955 -0.022827012 0.21300226 -0.20246 0.0031675564 0.03633712 -0.20883293
0.46540377 -0.01181496 0.32712775 0.2410767 -0.20260327 -0.063636504 -0.0146347955 -0.07792392
-0.058812313 -0.18416074 -0.08541325 0.05845233 0.57214445 0.038699627 0.12547988 -0.23970854
0.29271436 -0.21426195 0.038549207 -0.15972003 -0.035217453 0.19391611 -0.2548354 -0.19606909
0.07472364 0.15281221 0.06602095 0.27940974 0.4597332 0.05830941 -0.045668427 0.3805948
0.103389755 0.109305896 -0.010995299 -0.12770422 0.17449875 -0.07868687 -0.014446519 -0.08811563
0.16205941 -0.50699276 0.18761683 0.04186312 -0.13915409 -0.0011022091 -0.17712292 0.4000753
-0.32957944 0.357264 -0.11177168 0.105471104 -0.04675969 -0.03821635 -0.49065948 0.034889743
-0.02001544 0.285086 -0.24243052 -0.082986005 0.15348469 0.3416907 -0.07286532 -0.09465822
0.053744618 0.2119434 0.12839058 -0.19740567 -0.027726315 0.41127563 0.035669237 -0.0055985074
-0.066898406 0.2903856 -0.026663203 -0.008760981 -0.21060438 0.15764877 -0.07418518 0.025242666
0.014722751 -0.02585823 -0.023950696 0.036447976 -0.071826614 0.02946325 0.029836226 -0.031016752
-0.05898606 -0.18101561 -0.0002492 -0.028502122 0.10641172 0.08003631 0.0892677 0.0662268
0.011149108 0.067533545 -0.016253132 0.20553356 -0.19140622 0.32993993 0.21864289 -0.081508934
0.08016645 0.10893455 0.0111034885 -0.02899582 -0.2700381 -0.540034 -0.07185112 0.16865155
0.14757213 -0.5821484 -0.083968915 -0.1046977 0.048417643 -0.022715256 0.024167398 -0.087645605
-0.49421942 -0.28850183 0.06298957 0.21389684 0.23782861 -0.14096242 0.14390941 0.20913738
0.02860475 -0.055734623 0.14910834 0.13825116 0.07210273 -0.096494086 0.03285999 0.049801134
0.023567654 -0.07357922 0.11443458 0.02003739 -0.16803403 -0.055166967 -0.27271992 -0.07534654
00000000: d73b 07be 4019 aebd c051 803c 6e52 7ebe
00000010: 21c4 9fbd f440 cd3d d0ed cabd 4937 3ebe
00000020: d467 b93d 19e0 683e 1e59 3abe 849f a53e
00000030: 1ce8 82be 540a 5abd 3a2a 543d bdfd 6cbe
00000040: d7a6 aa3d edc0 853e 6711 94bd 9433 0f3d
00000050: 1774 dbbb 6c1f 743e a2be 43bd 59cd 6bbd
00000060: 3814 113d 60da f3ba b6c5 963d a443 70bd
00000070: c53e 0fbe f06d 273d c876 553e 6113 8d3e
00000080: b3f5 bebc f625 91bd 3c01 44bd 01e8 b0bd
00000090: 2874 123c 0d40 83bd c137 22be 3bde c8bd
000000a0: 44d7 153d ae44 28be e8ce 59bd 61f1 ad3c
000000b0: addf 783e eebb 323e da1d 5c3b 5927 5dbe
000000c0: f5c6 343e a6cb d23d 65ef e63d 37a2 4a3c
000000d0: 24c9 01bd 2666 b13d bea7 98bd d05e efbd
000000e0: d1a6 953d 8fb6 73bd 2ef7 673c 5d5b bc3d
000000f0: 2606 79bd b6f4 0c3e 0f13 833d 1858 6d3e
00000100: a05e 2c3e 44ab 923d 1e66 993d 25a3 403e
00000110: 80dd a63d 2ca4 05be 7634 27bf c2cf 153d
00000120: e84b 9ebd 0244 203e d89a 71bd 83f6 7fbd
00000130: d5e1 c03e 1ed1 073c c249 123f 48b2 d13d
00000140: 8c2c 423d 5212 20be d958 333d 359e 50bd
00000150: 4e7b 853e 8eea 8d3e 4147 c73d 2d0a 8e3c
00000160: bf27 893d 9469 983e 3e48 ed3a 5b80 763d
00000170: 1a13 1f3e be20 70be 1281 0abe ab8a 263d
00000180: 5263 b5be 2f74 6ebe cadb fc3a 08fe a5bc
00000190: 6400 433c 068f 293c c7ea fe3d ed29 243d
000001a0: da29 8cbd 144f e4bd b7ff babc 441d 5a3e
000001b0: ad51 4fbe c796 4f3b 3bd6 143d 4dd8 55be
000001c0: 6749 ee3e 8993 41bc 4a7d a73e cfdc 763e
000001d0: 3b77 4fbe db53 82bd c8c6 6fbc 9396 9fbd
000001e0: 2ee5 70bd a294 3cbe 24ed aebd b66b 6f3d
000001f0: 0f78 123f 8083 1e3d cc7d 003e 2876 75be
00000200: a8de 953e 7c67 5bbe c6e5 1d3d a68d 23be
00000210: 2d40 10bd f291 463e c979 82be 56c6 48be
00000220: b508 993d ce7a 1c3e fe35 873d cb0e 8f3e
00000230: 2662 eb3e d9d5 6e3d d10e 3bbd 52dd c23e
00000240: 02be d33d c5db df3d a025 34bc e5c4 02be
00000250: cdaf 323e 9526 a1bd 18b1 6cbc f875 b4bd
00000260: e7f2 253e 47ca 01bf a01e 403e aa78 2b3d
00000270: 697e 0ebe 0078 90ba b65f 35be abd6 cc3e
00000280: a3be a8be 4feb b63e 8de8 e4bd 3c01 d83d
00000290: 1787 3fbd bf88 1cbd b837 fbbe 8ce8 0e3d
000002a0: 6cf7 a3bc cbf6 913e b53f 78be 91f4 a9bd
000002b0: 172b 1d3e 15f2 ae3e 6a3a 95bd 2bdc c1bd
000002c0: 5123 5c3d b107 593e d278 033e b624 4abe
000002d0: 4c22 e3bc b892 d23e e819 123d af73 b7bb
000002e0: 0802 89bd 6cad 943e ca6c dabc 388a 0fbc
000002f0: ada8 57be ae6e 213e 66ee 97bd b5c9 ce3c
00000300: b237 713c a4d4 d3bc 4034 c4bc 794a 153d
00000310: d519 93bd ea5c f13c 1a6b f43c d816 febc
00000320: 5e9b 71bd 285c 39be 0fa7 82b9 487d e9bc
00000330: 63ee d93d 14ea a33d fcd1 b63d eba1 873d
00000340: c0aa 363c 074f 8a3d 4a25 85bc 6477 523e
00000350: feff 43be e3ed a83e ece3 5f3e 28ee a6bd
00000360: 4f2e a43d 1419 df3d 68eb 353c a488 edbc
00000370: 6f42 8abe ab3f 0abf ae26 93bd feb2 2c3e
00000380: 261d 173e ad07 15bf e5f7 abbd bf6b d6bd
00000390: 9451 463d 5815 babc b5fa c53c 8a7f b3bd
000003a0: 540a fdbe 83b6 93be ad00 813d c607 5b3e
000003b0: 5889 733e 7458 10be fd5c 133e 1c28 563e
000003c0: 8254 ea3c fd49 64bd dbaf 183e b691 0d3e
000003d0: 99aa 933d b19e c5bd 3298 063d 46fc 4b3d
000003e0: f410 c13c b4b0 96bd ad5c ea3d 7425 a43c
000003f0: 1d11 2cbe c2f6 61bd f2a1 8bbe 494f 9abd

fc2.bias f4 [64]
0.29114816 -0.21085796 -0.0576904 -0.40126526 0.015566345 -0.13957094 0.3819499 -0.010972439
-0.06980813 0.12003115 -0.106561676 0.21273115 -0.031502385 -0.042714436 -0.06454412 0.27049023
0.06363106 0.2110369 0.036473613 -0.06958426 -0.10715582 0.116713785 -0.18163525 0.32235178
0.019134771 -0.22034162 -0.32468894 0.020975593 -0.08450502 -0.12492955 -0.12249791 -0.16973059
0.2560698 -0.06311493 -0.24436834 0.26160452 0.0040785046 0.5039645 -0.22382396 -0.13797466
0.15061957 0.0032447428 0.100411855 0.15012176 -0.040323053 -0.03757466 -0.08407187 -0.07773816
0.17092738 0.43455854 -0.035952806 -0.032626312 0.20369972 0.043108027 -0.076018274 0.037950315
0.038092554 -0.072651565 0.046213206 0.39108458 -0.16315444 0.066594996 -0.18746586 0.11011402
00000000: 5f11 953e 26eb 57be c54c 6cbd a472 cdbe
00000010: fc09 7f3c afeb 0ebe f08e c33e bfc5 33bc
00000020: 91f7 8ebd e4d2 f53d 023d dabd 32d6 593e
00000030: a508 01bd 55f5 2ebd b52f 84bd b27d 8a3e
00000040: 0051 823d 0f1a 583e 5b65 153d 3182 8ebd
00000050: 8374 dbbd a307 ef3d 97fe 39be 4b0b a53e
00000060: 86c0 9c3c 3ca1 61be a13d a6be 02d5 ab3c
00000070: f810 adbd 10db ffbd 2fe0 fabd dbcd 2dbe
00000080: 951b 833e 6742 81bd b23b 7abe 07f1 853e
00000090: faa4 853b d103 013f 1c32 65be 3b49 0dbe
000000a0: 043c 1a3e c0a5 543b bba4 cd3d 85b9 193e
000000b0: c929 25bd e3e7 19bd df2d acbd 2f35 9fbd
000000c0: 9607 2f3e 757e de3e 4043 13bd 2ba3 05bd
000000d0: a996 503e 0b92 303d 78af 9bbd ca71 1b3d
000000e0: f006 1c3d 58ca 94bd 0f4a 3d3d 3d3c c83e
000000f0: f511 27be f562 883d 0df7 3fbe 7683 e13d

fc3.weight f4 [10, 64]
0.03015262 0.2846998 -0.09431436 -0.040962342 0.14640543 0.089758694 0.054864958 -0.49063438
0.045033563 0.031531174 -0.0017804854 -0.2478294 0.006182663 -0.029365035 -0.3554119 -0.5277865
-0.9526046 0.2654058 0.11772242 -0.6025283 -0.12835836 0.099104 0.092609726 0.16053818
-0.36319545 0.25904664 0.058099903 -0.5180572 0.1828158 0.1159528 -0.0316707 0.12322394
0.40890452 -0.0110161705 -0.5844596 -0.35725954 0.09642595 -0.022279473 0.30307597 0.053482573
0.03242123 -0.0060910187 -0.23097558 -0.057432562 0.15144387 0.02182644 -0.1558265 0.49539918
0.14202203 -0.2023469 0.15041767 0.09087182 -0.120536625 -0.15263899 0.34076646 -0.32739434
0.07745424 -0.1889831 -0.028154403 0.19006436 -0.12041977 0.20911847 0.26158056 -0.5737455
-0.3314901 0.53279096 0.1513676 0.23197654 -0.45026445 0.33988988 -0.639336 0.18650489
0.15708704 -0.3446597 -0.096761145 0.1044197 -0.036923315 -0.27129164 0.31164506 0.008087292
0.11445459 -0.31362 0.21063939 0.21478695 -0.13816197 0.35489184 -0.20381628 -0.11820093
0.13488919 -0.1301407 0.1930807 0.020060247 -0.59659714 -0.6865589 -0.06987934 -0.5123683
0.08696884 0.018979806 0.19868721 0.09948881 -0.07435857 -0.10236307 -0.6418017 0.01793603
-0.7673466 0.166614 -0.25967544 -0.18793792 -0.32037136 0.096865535 -0.3153488 -0.10985075
-0.07592679 -0.46595278 0.009374006 0.026557492 -0.035543095 -0.07995367 0.09267441 0.14784892
0.14098623 0.09691437 -0.30136725 -0.207253 -0.26173192 -0.45183745 0.5394999 0.13486354
-0.4076669 -0.44087258 -0.002304891 0.3029078 0.12154995 -0.49970743 0.06518339 -0.18163823
0.22724816 0.1035768 0.013606142 -0.14534807 -0.20981452 -0.031299405 0.124904126 -0.15327536
-0.25301382 -0.077175505 0.24889316 0.15600939 0.019928051 -0.0768435 0.21844323 -0.20775454
0.24368298 0.21173646 0.22783816 0.18437018 -0.020536449 0.30004326 0.07728958 -0.2712851
0.04931962 0.07035323 -0.08158147 0.13712671 -0.037384838 -0.33016944 0.2349953 -0.06986556
-0.24560328 -0.00894346 0.298294 0.28886867 0.16077374 0.20893101 -0.26338685 0.10349533
-0.3226247 0.025126923 -0.05135366 0.026012994 0.13886906 -0.476413 0.19396672 -0.40008003
-0.6593602 0.08258903 -0.009712403 -0.058296923 0.1859595 0.13610317 0.19593582 -0.070482686
0.16306478 0.06747499 -0.4667628 -0.7646438 -0.33396 -0.47505063 0.124163404 -0.1258165
0.09991071 0.11100928 0.053307526 -0.24295574 0.19494352 -0.3344839 -0.3308412 0.07920074
0.16964315 0.09549406 -0.56008935 0.19886455 0.07313376 0.012276653 -0.12301138 0.14318691
-0.21641892 0.20032799 0.09689199 0.05953465 -0.34028158 0.07188576 0.023143113 -0.33579102
0.029738784 -0.093294926 0.08532593 0.14439596 0.0063107884 -0.4020575 -0.6290246 -0.028693615
-0.52116984 0.41023582 0.29492766 -0.1708072 0.116819076 0.17106885 -0.08718012 0.054042786
0.13820176 0.12885416 -0.063772775 0.17670818 0.14431967 0.15120842 0.05917241 -0.09014367
0.21545312 -0.030332122 -0.42764443 -0.115814 -0.1737731 -0.5362744 -0.23374033 -0.32386702
00000000: a102 f73c 2cc4 913e e327 c1bd 21c8 27bd
00000010: 4eeb 153e 68d3 b73d 14ba 603d 6e34 fbbe
00000020: 1d75 383d d526 013d 2d5f e9ba fdc6 7dbe
00000030: f097 ca3b f18e f0bc 8cf8 b5be 041d 07bf
00000040: e5dd 73bf 45e3 873e 7418 f13d 4b3f 1abf
00000050: 6070 03be 0af7 ca3d 2baa bd3d 1f64 243e
00000060: c1f4 b9be c3a1 843e 2afa 6d3d 669f 04bf
00000070: 1134 3b3e a978 ed3d 23b9 01bd d55c fc3d
00000080: ef5b d13e 2b7d 34bc 259f 15bf b9ea b6be
00000090: f87a c53d 7183 b6bc c62c 9b3e 8b10 5b3d
000000a0: 20cc 043d 2b97 c7bb dd84 6cbe 683e 6bbd
000000b0: 1a14 1b3e 5dcd b23c fb90 1fbe f6a4 fd3e
000000c0: 396e 113e 0734 4fbe 1707 1a3e 011b ba3d
000000d0: e8db f6bd 654d 1cbe f178 ae3e 3ba0 a7be
000000e0: 54a0 9e3d c984 41be 10a4 e6bc 3ba0 423e
000000f0: a49e f6bd 2723 563e e3ed 853e fce0 12bf
00000100: 12b9 a9be fd64 083f 1c00 1b3e 428b 6d3e
00000110: 1089 e6be 0c06 ae3e 86ab 23bf 23fb 3e3e
00000120: 6ddb 203e 3c77 b0be b52a c6bd ffd9 d53d
00000130: e73c 17bd bde6 8abe f18f 9f3e 9080 043c
00000140: 2b67 ea3d cd92 a0be dab1 573e 1cf1 5b3e
00000150: 557a 0dbe 62b4 b53e 37b5 50be 5413 f2bd
00000160: 6420 0a3e 9b43 05be f2b6 453e 6355 a43c
00000170: 97ba 18bf 53c2 2fbf e61c 8fbd 922a 03bf
00000180: b81c b23d 8a7b 9b3c a974 4b3e cac0 cb3d
00000190: 4e49 98bd bba3 d1bd 1e4d 24bf 95ee 923c
000001a0: d470 44bf dc9c 2a3e 2ef4 84be cc72 40be
000001b0: b707 a4be 7061 c63d 6675 a1be 6ef9 e0bd
000001c0: 817f 9bbd 5d91 eebe 6e95 193c 198f d93c
000001d0: a395 11bd c0be a3bd 15cc bd3d b565 173e
000001e0: b25e 103e 0b7b c63d cf4c 9abe 213a 54be
000001f0: ba01 86be 3d57 e7be aa1c 0a3f ab19 0a3e
00000200: b7b9 d0be 0dba e1be a70d 17bb bb16 9b3e
00000210: 2eef f83d a7d9 ffbe df7e 853d 5fff 39be
00000220: beb3 683e 1320 d43d 4cec 5e3c 20d6 14be
00000230: 9ed9 56be ce33 00bd bccd ff3d 37f4 1cbe
00000240: 078b 81be 310e 9ebd d9dd 7e3e edc0 1f3e
00000250: 2740 a33c 2060 9dbd 95af 5f3e 9bbd 54be
00000260: 0888 793e 71d1 583e 684e 693e 89cb 3c3e
00000270: 0e3c a8bc 459f 993e 004a 9e3d e1e5 8abe
00000280: 5f03 4a3d 5b15 903d 3014 a7bd f26a 0c3e
00000290: d820 19bd f80b a9be 9ca2 703e ad15 8fbd
000002a0: 6d7f 7bbe 9787 12bc feb9 983e 98e6 933e
000002b0: dfa1 243e 03f2 553e a4da 86be 5cf5 d33d
000002c0: 112f a5be fad6 cd3c 3758 52bd 3419 d53c
000002d0: b133 0e3e 68ec f3be 369f 463e 4ad7 ccbe
000002e0: d4cb 28bf 7024 a93d c520 1fbc c1c8 6ebd
000002f0: 2b6c 3e3e a15e 0b3e 66a3 483e 3a59 90bd
00000300: 74fa 263e 5430 8a3d 89fb eebe b2bf 43bf
00000310: cefc aabe d639 f3be 6249 fe3d 0ad6 00be
00000320: fc9d cc3d d558 e33d fe58 5a3d 64c9 78be
00000330: 469f 473e 7941 abbe 0564 a9be ff33 a23d
00000340: efb6 2d3e 6492 c33d 0462 0fbf 26a3 4b3e
00000350: 27c7 953d 0424 493c 64ed fbbd 979f 123e
00000360: ec9c 5dbe c822 4d3e 4f6f c63d 9bda 733d
00000370: 6339 aebe d738 933d a096 bd3c cdec abbe
00000380: c09e f33c 6911 bfbd 5cbf ae3d 89dc 133e
00000390: bbca ce3b 7bda cdbe c207 21bf df0e ebbc
000003a0: 636b 05bf 6e0a d23e c200 973e 15e8 2ebe
000003b0: d73e ef3d ac2c 2f3e 7e8b b2bd f85b 5d3d
000003c0: c384 0d3e 58f2 033e 4d9b 82bd fdf2 343e
000003d0: 89c8 133e 61d6 1a3e c55e 723d 3f9d b8bd
000003e0: be9f 5c3e 127b f8bc 36f4 dabe e42f edbd
000003f0: 93f1 31be 4749 09bf a059 6fbe e6d1 a5be

fc3.bias f4 [10]
-0.21498156 -0.03778513 -0.35137168 0.16749537 0.07704808 -0.26040524 0.10510176 -0.11723
0.5247433 -0.034381017
00000000: 2024 5cbe 95c4 1abd fde6 b3be e883 2b3e
00000010: 62cb 9d3d d653 85be 973f d73d 4816 f0bd
00000020: 9455 063f 1cd3 0cbd
